ir_version: 3
producer_name: "tf2onnx"
producer_version: "0.4.0"
graph {
  node {
    input: "input_1:0"
    output: "Transpose__4:0"
    name: "Transpose__4"
    op_type: "Transpose"
    attribute {
      name: "perm"
      ints: 1
      ints: 0
      ints: 2
      type: INTS
    }
  }
  node {
    input: "Transpose__4:0"
    output: "Shape__8:0"
    name: "Shape__8"
    op_type: "Shape"
  }
  node {
    input: "Shape__8:0"
    output: "Cast__9:0"
    name: "Cast__9"
    op_type: "Cast"
    attribute {
      name: "to"
      i: 1
      type: INT
    }
  }
  node {
    input: "Cast__9:0"
    output: "Slice__10:0"
    name: "Slice__10"
    op_type: "Slice"
    attribute {
      name: "axes"
      ints: 0
      type: INTS
    }
    attribute {
      name: "ends"
      ints: 2
      type: INTS
    }
    attribute {
      name: "starts"
      ints: 1
      type: INTS
    }
  }
  node {
    input: "Slice__10:0"
    output: "Cast__11:0"
    name: "Cast__11"
    op_type: "Cast"
    attribute {
      name: "to"
      i: 7
      type: INT
    }
  }
  node {
    input: "Cast__9:0"
    output: "Slice__12:0"
    name: "Slice__12"
    op_type: "Slice"
    attribute {
      name: "axes"
      ints: 0
      type: INTS
    }
    attribute {
      name: "ends"
      ints: 1
      type: INTS
    }
    attribute {
      name: "starts"
      ints: 0
      type: INTS
    }
  }
  node {
    input: "Slice__12:0"
    input: "Cast__11:0"
    output: "Tile__13:0"
    name: "Tile__13"
    op_type: "Tile"
  }
  node {
    input: "Tile__13:0"
    output: "Cast__14:0"
    name: "Cast__14"
    op_type: "Cast"
    attribute {
      name: "to"
      i: 6
      type: INT
    }
  }
  node {
    input: "Transpose__4:0"
    input: "W__35"
    input: "R__36"
    input: "B__37"
    input: "Cast__14:0"
    input: "initial__34"
    output: "GRU__38:0"
    output: "GRU__38:1"
    name: "GRU__38"
    op_type: "GRU"
    attribute {
      name: "activations"
      strings: "sigmoid"
      strings: "Tanh"
      strings: "sigmoid"
      strings: "Tanh"
      type: STRINGS
    }
    attribute {
      name: "direction"
      s: "bidirectional"
      type: STRING
    }
    attribute {
      name: "hidden_size"
      i: 5
      type: INT
    }
  }
  node {
    input: "GRU__38:0"
    output: "Slice__39:0"
    name: "Slice__39"
    op_type: "Slice"
    attribute {
      name: "axes"
      ints: 1
      type: INTS
    }
    attribute {
      name: "ends"
      ints: 1
      type: INTS
    }
    attribute {
      name: "starts"
      ints: 0
      type: INTS
    }
  }
  node {
    input: "Slice__39:0"
    output: "Squeeze__17:0"
    name: "Squeeze__17"
    op_type: "Squeeze"
    attribute {
      name: "axes"
      ints: 1
      type: INTS
    }
  }
  node {
    input: "Squeeze__17:0"
    output: "Transpose__18:0"
    name: "Transpose__18"
    op_type: "Transpose"
    attribute {
      name: "perm"
      ints: 1
      ints: 0
      ints: 2
      type: INTS
    }
  }
  node {
    input: "Transpose__18:0"
    output: "output/input_Unsqueeze__41:0"
    name: "output/input_Unsqueeze__41"
    op_type: "Unsqueeze"
    attribute {
      name: "axes"
      ints: 0
      type: INTS
    }
  }
  node {
    input: "GRU__38:0"
    output: "Slice__40:0"
    name: "Slice__40"
    op_type: "Slice"
    attribute {
      name: "axes"
      ints: 1
      type: INTS
    }
    attribute {
      name: "ends"
      ints: 2
      type: INTS
    }
    attribute {
      name: "starts"
      ints: 1
      type: INTS
    }
  }
  node {
    input: "Slice__40:0"
    output: "Squeeze__32:0"
    name: "Squeeze__32"
    op_type: "Squeeze"
    attribute {
      name: "axes"
      ints: 1
      type: INTS
    }
  }
  node {
    input: "Squeeze__32:0"
    output: "Transpose__33:0"
    name: "Transpose__33"
    op_type: "Transpose"
    attribute {
      name: "perm"
      ints: 1
      ints: 0
      ints: 2
      type: INTS
    }
  }
  node {
    input: "Transpose__33:0"
    output: "output/input_Unsqueeze__42:0"
    name: "output/input_Unsqueeze__42"
    op_type: "Unsqueeze"
    attribute {
      name: "axes"
      ints: 0
      type: INTS
    }
  }
  node {
    input: "output/input_Unsqueeze__41:0"
    input: "output/input_Unsqueeze__42:0"
    output: "output/input_Concat__43:0"
    name: "output/input_Concat__43"
    op_type: "Concat"
    attribute {
      name: "axis"
      i: 0
      type: INT
    }
  }
  node {
    input: "output/input_Concat__43:0"
    output: "raw_output___2:0"
    name: "output"
    op_type: "Identity"
  }
  node {
    input: "raw_output___2:0"
    output: "output:0"
    name: "Identity__3"
    op_type: "Identity"
  }
  name: "tf2onnx"
  initializer {
    dims: 2
    dims: 6
    dims: 5
    data_type: FLOAT
    name: "initial__34"
    raw_data: "…"
  }
  initializer {
    dims: 2
    dims: 15
    dims: 2
    data_type: FLOAT
    name: "W__35"
    raw_data: "…"
  }
  initializer {
    dims: 2
    dims: 15
    dims: 5
    data_type: FLOAT
    name: "R__36"
    raw_data: "…"
  }
  initializer {
    dims: 2
    dims: 30
    data_type: FLOAT
    name: "B__37"
    raw_data: "…"
  }
  doc_string: "test"
  input {
    name: "initial__34"
    type {
      tensor_type {
        elem_type: FLOAT
        shape {
          dim {
            dim_value: 2
          }
          dim {
            dim_value: 6
          }
          dim {
            dim_value: 5
          }
        }
      }
    }
  }
  input {
    name: "W__35"
    type {
      tensor_type {
        elem_type: FLOAT
        shape {
          dim {
            dim_value: 2
          }
          dim {
            dim_value: 15
          }
          dim {
            dim_value: 2
          }
        }
      }
    }
  }
  input {
    name: "R__36"
    type {
      tensor_type {
        elem_type: FLOAT
        shape {
          dim {
            dim_value: 2
          }
          dim {
            dim_value: 15
          }
          dim {
            dim_value: 5
          }
        }
      }
    }
  }
  input {
    name: "B__37"
    type {
      tensor_type {
        elem_type: FLOAT
        shape {
          dim {
            dim_value: 2
          }
          dim {
            dim_value: 30
          }
        }
      }
    }
  }
  input {
    name: "input_1:0"
    type {
      tensor_type {
        elem_type: FLOAT
        shape {
          dim {
            dim_value: 6
          }
          dim {
            dim_value: 3
          }
          dim {
            dim_value: 2
          }
        }
      }
    }
  }
  output {
    name: "output:0"
    type {
      tensor_type {
        elem_type: FLOAT
        shape {
          dim {
            dim_value: 2
          }
          dim {
            dim_value: 6
          }
          dim {
            dim_param: "unk__44"
          }
          dim {
            dim_value: 5
          }
        }
      }
    }
  }
}
opset_import {
  version: 7
}
